converted_model.tflite (tflite, 1328 bytes, 4 tensors)

dense/MatMul_bias f4 [3]
00000000: 2aed 95bc e530 86be c2c7 273f
-0.018301565 -0.2620918 0.6553918

dense/kernel/transpose f4 [3, 3]
00000000: 63b4 413f 146d 393e bd30 e63e 2086 bebf
00000010: 9358 753e f4b8 173f 6270 74c0 14c0 343e
00000020: 565d 5f3f
0.75665873 0.18108016 0.4495906 -1.4884682 0.2395957 0.5926659 -3.8193593 0.17651397
0.87251794

dense_1/MatMul_bias f4 [2]
00000000: af66 993f cc76 89bf
1.1984462 -1.0739379

dense_1/kernel/transpose f4 [2, 3]
00000000: 5106 113f bf1c 51bf 21b9 34c0 de30 8fbf
00000010: a09a 613f 98f0 5340
0.56650263 -0.8168449 -2.8237994 -1.1186788 0.88126564 3.3115597
